…
/csc500-super-repo/datasets/automated_windower/windowed_EachDevice-200k_batch-100_stride-20_distances-2.8.14.20.26.32
Model: "steves_model"
__________________________________________________________________________________________________
Layer (type)                    Output Shape         Param #     Connected to                     
==================================================================================================
input_1 (InputLayer)            [(None, 2, 128)]     0                                            
__________________________________________________________________________________________________
classifier_conv1d_1 (Conv1D)    (None, 50, 122)      750         input_1[0][0]                    
__________________________________________________________________________________________________
classifier_conv1d_2 (Conv1D)    (None, 50, 58)       17550       classifier_conv1d_1[0][0]        
__________________________________________________________________________________________________
dropout (Dropout)               (None, 50, 58)       0           classifier_conv1d_2[0][0]        
__________________________________________________________________________________________________
input_2 (InputLayer)            [(None,)]            0                                            
__________________________________________________________________________________________________
classifier_flatten (Flatten)    (None, 2900)         0           dropout[0][0]                    
__________________________________________________________________________________________________
reshape (Reshape)               (None, 1)            0           input_2[0][0]                    
__________________________________________________________________________________________________
classifier_concat_x_with_t (Con (None, 2901)         0           classifier_flatten[0][0]         
                                                                 reshape[0][0]                    
__________________________________________________________________________________________________
classifier_fc_1 (Dense)         (None, 256)          742912      classifier_concat_x_with_t[0][0] 
__________________________________________________________________________________________________
dropout_1 (Dropout)             (None, 256)          0           classifier_fc_1[0][0]            
__________________________________________________________________________________________________
classifier_fc_2 (Dense)         (None, 256)          65792       dropout_1[0][0]                  
__________________________________________________________________________________________________
dropout_2 (Dropout)             (None, 256)          0           classifier_fc_2[0][0]            
__________________________________________________________________________________________________
classifier_fc_3 (Dense)         (None, 256)          65792       dropout_2[0][0]                  
__________________________________________________________________________________________________
dropout_3 (Dropout)             (None, 256)          0           classifier_fc_3[0][0]            
__________________________________________________________________________________________________
classifier_fc_4 (Dense)         (None, 256)          65792       dropout_3[0][0]                  
__________________________________________________________________________________________________
dropout_4 (Dropout)             (None, 256)          0           classifier_fc_4[0][0]            
__________________________________________________________________________________________________
classifier_fc_5 (Dense)         (None, 256)          65792       dropout_4[0][0]                  
__________________________________________________________________________________________________
dropout_5 (Dropout)             (None, 256)          0           classifier_fc_5[0][0]            
__________________________________________________________________________________________________
classifier_fc_6 (Dense)         (None, 80)           20560       dropout_5[0][0]                  
__________________________________________________________________________________________________
dropout_6 (Dropout)             (None, 80)           0           classifier_fc_6[0][0]            
__________________________________________________________________________________________________
dense (Dense)                   (None, 16)           1296        dropout_6[0][0]                  
==================================================================================================
Total params: 1,046,236
Trainable params: 1,046,236
Non-trainable params: 0
__________________________________________________________________________________________________
Epoch 1/5
      1/Unknown - 2s 2s/step - loss: 5.9336 - categorical_accuracy: 0.039
…
